pytorch_models/TD3_Ant-v4_0_actor.pth (torch, 537903 bytes, 6 tensors)

layer_1.weight f4 [400, 27]
-0.5954032 0.21403599 -1.5349323 0.66808724 0.5868311 0.2066463 -0.6117438 0.34988385
0.9113941 -1.1563457 0.22915713 -0.44436857 -0.77931577 -0.79136914 1.3574128 0.56397444
0.13970548 -0.12183616 -0.5743243 0.24553889 0.062567525 -0.024534008 0.0051831114 -0.3169139
0.32995808 0.12452899 -0.37340808 -0.46989816 -0.30768377 1.3219812 0.9874692 -0.86794734
1.6930467 -0.6224637 -0.8912441 0.017608307 -1.4894036 0.31217265 -2.0142434 0.093784116
-0.3956114 0.102369785 -0.6339217 -0.53935415 -0.17264499 -0.3259392 -0.16044912 0.074009694
-0.18567808 -0.03294424 -0.26128817 0.047950715 -0.13546054 0.07390303 -0.6565906 -1.0583467
2.2467525 0.6011861 0.8180517 -1.5512705 -0.07047253 0.15949151 0.8839156 0.6245603
0.36915055 -1.7588234 0.38839498 -0.176081 0.02560586 0.31597286 -0.10964109 -0.7739828
0.56947213 0.060747664 0.027072035 0.017651754 -0.32389882 -0.1148964 0.03852492 0.026084142
-0.1727481 -0.5212372 -0.5038328 1.0045716 -0.8880057 -1.1230474 0.057327826 -1.3100308
0.7843513 0.7788875 -0.11621101 0.74612993 -0.14476539 -0.5739472 -0.8189844 -0.26938584
0.6460115 -0.3349907 -0.38943553 -0.7364412 0.22610788 0.03599728 -0.05553753 -0.16517119
-0.5897776 0.12889676 -0.30024418 -0.1250414 -0.17349681 0.20972343 -0.08415631 0.17760584
0.7898309 -0.15572931 -0.74047476 -0.3644558 1.2734252 -1.9691083 0.2714509 1.0059854
-0.43205437 -0.73705775 -0.15747064 0.6571364 -0.27868822 -0.7495121 0.510967 -0.42096487
0.20142037 0.012303492 -0.06878096 0.00054245145 0.06529285 -0.0067908755 0.2819534 -0.664425
-0.120745085 -0.9309136 2.198894 1.792415 0.7544163 0.04034948 1.4373448 0.9689586
-1.7481987 0.4613906 -0.52369195 -0.12510127 -1.0656291 -0.93279856 -0.45445564 -0.3510095
-0.22566368 0.01365265 0.056150723 -0.12418266 0.13103771 0.02209303 0.05075969 0.033888936
0.089892015 -0.33019197 -0.0074787103 -1.1192131 2.3454897 -1.9230311 1.0477248 0.9029424
-0.4343951 -0.05487755 0.83082724 -1.7569036 0.5493356 0.9477675 0.053069554 0.3182269
-0.18763193 0.13920763 0.9513226 -0.47631052 -0.48971152 -0.11188598 -0.10928497 -0.08621837
0.024050908 -0.23857203 0.0494612 -0.066691115 -0.1828033 0.021760661 2.0888944 0.38272914
-0.6426153 1.198539 -0.31678352 0.2408441 -0.373549 0.7996776 -0.6890489 0.16112274
0.67203283 -0.034085035 -0.28619218 -0.060598712 -0.07671153 0.43286046 -0.123638496 -0.197115
0.017917821 0.042172324 -0.11032792 0.016171914 -0.035243634 0.07370012 0.1097667 -0.03166341
-1.2176039 -1.2634695 3.3768015 -3.6090636 0.35208082 -0.7399109 0.08613667 0.5329306
0.2865561 0.10465609 0.39446926 -0.55652493 -0.24805447 -0.06914055 -0.22685991 0.60386485
0.16293746 -0.51161367 -0.19780514 -0.030641358 0.02716555 -0.23810194 0.09086312 0.085575216
-0.00039347817 0.037313897 -0.08334277 0.21591552 1.0949156 0.2092302 -0.21351041 0.38003564
-0.42978063 0.48042992 1.053059 0.9545461 -0.41052762 -0.41791135 -0.86311126 -0.21695834
00000000: 586c 18bf 402c 5b3e a978 c4bf c407 2b3f
00000010: 903a 163f 169b 533e 3e9b 1cbf fa23 b33e
00000020: 2051 693f 2303 94bf 2ba8 6a3e 4784 e3be
00000030: 3d81 47bf 2b97 4abf b4bf ad3f a160 103f
00000040: f40e 0f3e 3d85 f9bd eb06 13bf 8c6e 7b3e
00000050: 6723 803d 8bfb c8bc 17d7 a93b 8a42 a2be
00000060: 44f0 a83e 0e09 ff3d 582f bfbe 7e96 f0be
00000070: ba88 9dbe ae36 a93f c8ca 7c3f cc31 5ebf
00000080: c1b5 d83f c859 1fbf 9328 64bf 4c3f 903c
00000090: c7a4 bebf 18d5 9f3e 5de9 00c0 e311 c03d
000000a0: 948d cabe 40a7 d13d b148 22bf 1d13 0abf
000000b0: d9c9 30be 81e1 a6be c64c 24be 6592 973d
000000c0: 6522 3ebe 8af0 06bd 90c7 85be f867 443d
000000d0: 2bb6 0abe 795a 973d 5216 28bf e877 87bf
000000e0: cbca 0f40 55e7 193f d66b 513f 0890 c6bf
000000f0: e753 90bd be51 233e 4b48 623f 2fe3 1f3f
00000100: 4d01 bd3e 2021 e1bf b5db c63e 944e 34be
00000110: 61c3 d13c 32c7 a13e 828b e0bd bd23 46bf
00000120: edc8 113f 8bd2 783d 2cc6 dd3c 699a 903c
00000130: 11d6 a5be ce4e ebbd 4ecc 1d3d 69ae d53c
00000140: e1e4 30be cd6f 05bf 30fb 00bf cd95 803f
00000150: 5754 63bf 04c0 8fbf 95d0 6a3d 17af a7bf
00000160: 3fcb 483f 2c65 473f 0a00 eebd 5f02 3f3f
00000170: 613d 14be 34ee 12bf f6a8 51bf f1ec 89be
00000180: 0261 253f e783 abbe 1864 c7be 6987 3cbf
00000190: d388 673e e271 133d 527b 63bd a322 29be
000001a0: aafb 16bf 83fd 033e 9bb9 99be da0a 00be
000001b0: 26a9 31be bdc1 563e 255a acbd 4ede 353e
000001c0: 5c32 4a3f 8177 1fbe c18f 3dbf f399 babe
000001d0: 99ff a23f be0b fcbf 9dfb 8a3e 21c4 803f
000001e0: 3b36 ddbe d1af 3cbf fc3f 21be 173a 283f
000001f0: 39b0 8ebe 06e0 3fbf bcce 023f b588 d7be
00000200: 2441 4e3e 9694 493c 08dd 8cbd 4d33 0e3a
00000210: 42b8 853d fe85 debb 325c 903e c217 2abf
00000220: 3349 f7bd 5b50 6ebf aeba 0c40 db6d e53f
00000230: 6d21 413f 7f45 253d eafa b73f ac0d 783f
00000240: fac4 dfbf 643b ec3e ad10 06bf 8c1a 00be
00000250: 8966 88bf e3cb 6ebf 69ae e8be 84b7 b3be
00000260: 6114 67be 5daf 5f3c 4dfe 653d 7a53 febd
00000270: c02e 063e 71fc b43c 65e9 4f3d 20cf 0a3d
00000280: 4e19 b83d ec0e a9be f80f f5bb 6042 8fbf
00000290: 811c 1640 e225 f6bf d91b 863f 3c27 673f
000002a0: 0969 debe 48c7 60bd 18b1 543f 38e2 e0bf
000002b0: 42a1 0c3f e4a0 723f 765f 593d a3ee a23e
000002c0: 9622 40be 728c 0e3e e189 733f f9de f3be
000002d0: 78bb fabe 7a24 e5bd ccd0 dfbd 4293 b0bd
000002e0: 6906 c53c 3a4c 74be d497 4a3d 5a95 88bd
000002f0: ca30 3bbe 6a43 b23c 72b0 0540 13f5 c33e
00000300: 7082 24bf ba69 993f 7331 a2be d69f 763e
00000310: d141 bfbe acb7 4c3f 8265 30bf 5cfd 243e
00000320: 580a 2c3f c09c 0bbd c887 92be 5b36 78bd
00000330: ef1a 9dbd e39f dd3e 2e36 fdbd 84d8 49be
00000340: 65c8 923c e3bc 2c3d 9bf3 e1bd f67a 843c
00000350: a15b 10bd 17f0 963d 5dcd e03d 7eb1 01bd
00000360: 72da 9bbf 5eb9 a1bf 841d 5840 e6fa 66c0
00000370: f043 b43e cd6a 3dbf 6c68 b03d 246e 083f
00000380: 7bb7 923e ef55 d63d e0f7 c93e 6b78 0ebf
00000390: fe01 7ebe 9099 8dbd f74d 68be e396 1a3f
000003a0: 14d9 263e 1df9 02bf 6e8d 4abe 9603 fbbc
000003b0: 4a8a de3c ffd0 73be 7216 ba3d 0f42 af3d
000003c0: bf4b ceb9 75d6 183d 9daf aabd f518 5d3e
000003d0: 3226 8c3f 7140 563e 79a2 5abe 0894 c23e
000003e0: 350c dcbe e9fa f53e a3ca 863f 225d 743f
000003f0: ad30 d2be 7af8 d5be dcf4 5cbf 542a 5ebe

layer_1.bias f4 [400]
-1.3002454 0.14252424 -0.15348166 -1.5131251 -0.7610599 -1.008157 -0.6053247 -0.3634433
-0.3026278 -0.92725927 -1.0655792 -1.0275407 0.23391822 -0.07257862 -0.86037064 -0.88800997
-0.0031692355 -0.7601223 -0.21803692 -0.13828641 -0.6911032 -1.0407057 -0.8457982 -0.14723773
-0.51979834 -0.74410236 -0.80162066 -1.1162068 -0.76941353 -0.63645583 -0.6687224 -0.9656361
-0.11115202 0.04400661 -1.1740459 -0.17576787 -0.10298104 -0.016223405 -0.96989644 -0.514638
-0.77617997 -0.53382784 -1.2206435 -0.093908705 0.24746834 -0.6673562 -0.22384854 -1.0054209
-0.30114397 -0.48579216 -0.08796157 -1.0624715 -0.23737644 -0.41115937 -0.91646636 -0.84303826
-0.41172975 -0.92502826 -0.45258316 -0.8577342 -1.6178881 -0.6559899 -0.81989926 -1.0120842
-0.6363581 -1.0159127 -1.2158883 -0.20534664 -0.5512563 -0.65561265 -0.24821553 -1.1578095
0.04453799 -0.66917235 -0.20449772 -0.6980752 -0.61257297 -0.6476184 -1.0851344 -0.68223053
-0.6688063 -0.5615183 -0.7812294 -0.74680716 -0.21192525 -0.26088643 -0.93812484 -0.51365185
-0.38053098 -0.13022715 -0.5425021 -0.24182913 -0.57519644 -0.7611358 -0.63426375 -0.10910325
-1.0380621 -0.6839986 -0.55312765 -1.0529441 -0.3807545 -0.5418413 -0.53282845 -0.85323864
-0.72177464 -0.4594602 -0.4282558 -0.24109228 -0.8429173 -0.39941373 -0.74246556 -0.9999839
-0.2753569 -0.89426494 -0.9416106 -0.49888325 0.37321606 -1.2240373 -0.024267036 -0.8548067
-0.6757501 -0.6670759 -0.14722642 -0.7545762 -0.3932367 -0.1737347 0.10228137 -1.273505
-0.49492055 -0.55125695 -0.9583236 -0.69322 0.12470809 0.30452594 -0.7071528 0.23960434
-0.8609681 0.12894483 -0.6786981 -0.23200822 -1.3658677 -0.052141346 -0.36157343 -0.5321565
-0.5157222 -0.18937525 -0.6396312 -0.4408139 -0.9314845 -0.803055 -0.83568025 -1.1268102
-0.46805853 0.12077352 -0.8103021 0.0060644196 -1.2862965 -0.7880556 -0.90616053 -0.9885224
-0.096238084 -0.49381185 -0.02573795 -1.2351747 -1.2756582 -0.56020963 -0.900197 -0.26862124
-1.0126953 -0.9119011 -1.4199845 -0.9825263 -1.1064976 -0.9092186 -0.8787238 -0.9016392
-0.86889565 0.068741895 -0.6409218 -0.33428606 -0.36716974 -0.14407815 -1.2942063 -0.1794079
-0.69981086 -0.80741596 -1.170918 0.068086945 -0.94479716 0.04578192 0.021139668 -0.15634768
-0.30534056 -0.56026375 -1.248376 0.1528924 -1.1813318 -0.9903291 0.12164848 0.0070283124
-0.027992632 -1.319119 -0.83296996 -0.37406427 -0.24413982 -0.6918902 -0.8763517 -0.68441
-0.08311982 -0.20140599 -0.26525483 -0.23016858 0.4376815 0.03676051 -0.49182367 -0.079073645
-1.1467545 -0.4491158 -0.80689824 -1.1248351 -1.0014268 -1.2849756 0.102094516 -0.19873954
-1.0952858 0.49107242 0.40529242 -0.7040037 -0.6578679 -1.099175 -0.40025163 0.05144731
-0.52838796 -1.2302846 -0.96975255 -1.4742668 0.41883156 -0.15151823 -0.7892923 -0.06791358
-1.2758858 -0.5068534 -0.7789789 -0.5605002 -0.8195198 -0.08938554 -0.8457259 -0.51505244
-1.2368333 -0.51513726 -0.26664057 0.7110016 -1.0177048 -0.656508 0.27013627 -0.64872086
00000000: 716e a6bf e0f1 113e 4c2a 1dbe 15ae c1bf
00000010: d2d4 42bf 4a0b 81bf 8ff6 1abf 3d15 babe
00000020: 08f2 9abe dd60 6dbf e664 88bf 7486 83bf
00000030: 4288 6f3e 19a4 94bd 4041 5cbf 9f54 63bf
00000040: f3b2 4fbb 6097 42bf 1245 5fbe f49a 0dbe
00000050: 24ec 30bf d835 85bf 3b86 58bf 7dc5 16be
00000060: 8111 05bf 7e7d 3ebf 0337 4dbf dddf 8ebf
00000070: 49f8 44bf c5ee 22bf 6431 2bbf ed33 77bf
00000080: aca3 e3bd 4640 343d 2347 96bf 7efc 33be
00000090: b9e7 d2bd f2e6 84bc 224b 78bf 51bf 03bf
000000a0: bbb3 46bf f1a8 08bf 0c3e 9cbf 3553 c0bd
000000b0: 5768 7d3e dbd7 2abf 8d38 65be a2b1 80bf
000000c0: 8b2f 9abe c0b9 f8be 3225 b4bd 11ff 87bf
000000d0: cf12 73be 7b83 d2be 8a9d 6abf 5bd1 57bf
000000e0: 3ece d2be a7ce 6cbf fbb8 e7be 7894 5bbf
000000f0: f516 cfbf f4ee 27bf ebe4 51bf fa8b 81bf
00000100: 5de8 22bf 6d09 82bf 3aa2 9bbf 6446 52be
00000110: 221f 0dbf 3bd6 27bf 362c 7ebe 1a33 94bf
00000120: 786d 363d e14e 2bbf da67 51be 0eb5 32bf
00000130: 95d1 1cbf 52ca 25bf afe5 8abf a9a6 2ebf
00000140: e436 2bbf aabf 0fbf a6fe 47bf c12e 3fbf
00000150: ef02 59be e892 85be f328 70bf b07e 03bf
00000160: f5d4 c2be 445a 05be 6be1 0abf 0ea2 77be
00000170: 1340 13bf ccd9 42bf 1c5f 22bf 8671 dfbd
00000180: 38df 84bf 881a 2fbf c699 0dbf dfc6 86bf
00000190: 41f2 c2be 1db6 0abf 7267 08bf d96d 5abf
000001a0: 39c6 38bf 5e3e ebbe 5844 dbbe e5e0 76be
000001b0: 6ec9 57bf f57f ccbe 3912 3ebf f2fe 7fbf
000001c0: 94fb 8cbe 8cee 64bf 640d 71bf a06d ffbe
000001d0: 2d16 bf3e 41ad 9cbf aacb c6bc 9dd4 5abf
000001e0: f5fd 2cbf 7cc5 2abf 86c2 16be e82b 41bf
000001f0: 5256 c9be 82e7 31be e578 d13d 3602 a3bf
00000200: 3a66 fdbe 2d1f 0dbf b254 75bf de76 31bf
00000210: f566 ff3d d3ea 9b3e f707 35bf d75a 753e
00000220: 6868 5cbf 1d0a 043e 29bf 2dbf 9093 6dbe
00000230: c1d4 aebf 2a92 55bd 2720 b9be 693b 08bf
00000240: 5f06 04bf 96eb 41be dfbe 23bf 5cb2 e1be
00000250: c575 6ebf 0395 4dbf 24ef 55bf 513b 90bf
00000260: 5ea5 efbe 1b58 f73d f56f 4fbf 0ab8 c63b
00000270: 5da5 a4bf 03be 49bf 23fa 67bf ce0f 7dbf
00000280: 7918 c5bd e8d4 fcbe 65d8 d2bc 341a 9ebf
00000290: c548 a3bf e669 0fbf 5073 66bf b988 89be
000002a0: 00a0 81bf 5a72 69bf 0dc2 b5bf d886 7bbf
000002b0: b7a1 8dbf 8dc2 68bf 0bf4 60bf d4d1 66bf
000002c0: f26f 5ebf 8dc8 8c3d 7313 24bf 8b27 abbe
000002d0: acfd bbbe 3989 13be 8da8 a5bf b4b6 37be
000002e0: ce26 33bf d0b2 4ebf a4e0 95bf 2b71 8b3d
000002f0: 3ade 71bf d385 3b3d 192d ad3c 9b19 20be
00000300: 9955 9cbe 726d 0fbf c9ca 9fbf d38f 1c3e
00000310: e135 97bf 3586 7dbf d722 f93d c24d e63b
00000320: ce50 e5bc e4d8 a8bf 853d 55bf 5a85 bfbe
00000330: caff 79be b71f 31bf 9658 60bf 7e35 2fbf
00000340: b93a aabd 5f3d 4ebe 7bcf 87be 50b1 6bbe
00000350: ca17 e03e 3092 163d 50d0 fbbe 5df1 a1bd
00000360: dac8 92bf 82f2 e5be e290 4ebf 99fa 8fbf
00000370: c12e 80bf 157a a4bf ee16 d13d 6182 4bbe
00000380: 5332 8cbf d86d fb3e 7d82 cf3e 9639 34bf
00000390: 086a 28bf c4b1 8cbf c8ed ccbe 6aba 523d
000003a0: 6f44 07bf f779 9dbf b441 78bf c6b4 bcbf
000003b0: 1771 d63e 9827 1bbe 0f0f 4abf 4616 8bbd
000003c0: 3a50 a3bf 25c1 01bf 296b 47bf f17c 0fbf
000003d0: 0dcc 51bf c40f b7bd 7e81 58bf 7ada 03bf
000003e0: 8e50 9ebf 09e0 03bf 1d85 88be 3304 363f
000003f0: 2744 82bf e910 28bf 4d4f 8a3e 9212 26bf

layer_2.weight f4 [300, 400]
0.3371831 -0.0014346001 0.07321695 -0.36517832 -0.18274726 -0.22892962 -0.12237007 -0.3226714
-0.19650666 -0.71520334 -0.057689335 -0.19205095 -0.0701649 0.09356894 -0.34189567 -0.1353061
-1.0263098 0.0072337156 -0.62518454 0.06575908 0.028377369 -0.22039637 -0.42836645 -0.20247635
-0.33773804 -0.099987015 -0.40519702 -0.28107232 -0.23425259 -0.2069863 0.09810361 -0.08338131
-0.17520185 -0.48406798 -0.47198856 -0.3003035 -0.45908514 -0.14249003 0.2399554 -0.115294725
-0.87258583 -0.21228927 -0.27034044 -0.16174799 -0.31857923 -0.0008868403 -0.8705331 -0.077749886
-0.6704154 -0.192061 0.0015964566 0.023285167 -0.21948047 -0.5904727 -0.42196932 -0.40408596
-0.08732272 -0.122801766 0.01760926 -0.39257145 -0.110048585 -0.773468 -0.4028544 -0.30458522
-0.3650536 -0.14027147 -0.32199216 0.10054655 -0.93902117 0.15155245 -0.05633904 -0.22163506
-0.67898387 -0.39676046 -0.0012186001 -0.33045828 -0.52431947 -0.37975672 -0.22545564 -0.091490015
0.25312614 0.20876755 -0.27391398 -0.17534246 0.07646473 -0.14679989 -0.4756029 -0.019072298
0.10328588 0.17803681 -0.080958486 -0.6206341 -0.04184151 -0.08392309 -0.18462871 -0.56526226
-0.032239642 0.043378852 -0.3785791 0.19630693 -0.46163586 -0.0880033 -0.3880546 -0.5164013
0.29343262 -0.27610767 -0.1731313 -0.53365195 -0.095122494 -0.27640855 -0.30334094 -0.3670846
0.038563386 -0.011903244 -0.13755146 -0.16207679 -0.01693006 -0.057415456 -0.33110407 -0.42079788
-0.101755716 -0.3580498 -0.46183 -0.017337194 -0.23516227 0.2558685 0.20047541 -0.13876751
-0.010611548 0.4650839 -0.3771732 -0.17474194 -0.43564975 -0.21217562 0.13222773 0.01929366
-0.00037988232 -0.17068344 -0.19829573 -0.5541649 -0.053515747 -0.14970955 -0.25850728 -0.106536195
-0.62152416 0.39653328 -0.20465371 -0.038196966 -0.19255404 -0.30241087 -0.2295731 0.009780903
-0.54315937 -0.2666832 -0.14170471 -0.35192335 -0.1256385 -0.16446495 0.14477497 -0.09972261
-0.17388067 0.40918183 -0.22482668 -0.11278379 -0.28801566 -0.3644268 -0.49213782 -0.46275544
0.17530966 0.22639497 -0.2914793 -0.759101 0.17889303 0.028188959 -0.1986686 0.042607572
0.11328547 0.17513461 -0.2568802 -0.597427 0.3060067 -0.3063939 -0.09066329 -0.11957609
-0.10087315 -0.272976 -0.18837015 0.7161729 -0.2967458 -0.07407418 -0.74060506 -0.25126633
0.005756262 -0.010582546 0.03368684 -0.36117896 0.11075502 -0.0065104016 -0.38839066 -0.44271258
-0.45995435 0.16951098 -0.19060414 -0.009101288 -0.5586891 -0.77644175 -0.09035327 -0.2356439
-0.17870173 -0.0026024466 -0.1757737 -0.11857979 -0.19973838 -1.996519 -0.058083646 -0.70043445
-0.01883381 -0.38544747 -0.40317672 0.012930233 -0.087805524 -0.053250898 -0.20429195 -0.43723378
0.11145135 -0.49538863 -0.625884 -0.5660715 0.029843885 -0.2824185 -0.19036311 -0.3221508
-0.6408197 0.07365742 -0.07065155 -0.075712 0.18659629 0.16088639 -0.32779658 -0.66099805
-0.3210601 -0.41094345 0.32748857 -0.76836807 -0.11361171 -0.07588474 -0.15205029 -0.24657053
-0.12182126 -0.49351916 -0.27344292 -0.044921376 -0.37607569 -0.21365945 -0.46833476 -0.11630481
00000000: 43a3 ac3e 3109 bcba c5f2 953d a7f8 babe
00000010: 1922 3bbe 876c 6abe 299d fabd 3035 a5be
00000020: 0b39 49be 9117 37bf a74b 6cbd 01a9 44be
00000030: 9db2 8fbd 13a1 bf3d f30c afbe af8d 0abe
00000040: 1f5e 83bf ce08 ed3b 180c 20bf b2ac 863d
00000050: a877 e83c 96af 61be d952 dbbe f655 4fbe
00000060: 00ec acbe fec5 ccbd fc75 cfbe b6e8 8fbe
00000070: e9df 6fbe 37f4 53be 8cea c83d d2c3 aabd
00000080: 1d68 33be c2d7 f7be 7ca8 f1be 61c1 99be
00000090: 350d ebbe e8e8 11be deb6 753e a41f ecbd
000000a0: c961 5fbf 5c62 59be 106a 8abe 44a1 25be
000000b0: d11c a3be d87a 68ba 42db 5ebf 553b 9fbd
000000c0: 58a0 2bbf a4ab 44be 3240 d13a 89c0 be3c
000000d0: 7dbf 60be 3829 17bf 5d0c d8be 5be4 cebe
000000e0: 41d6 b2bd 7e7f fbbd 4b41 903c 20ff c8be
000000f0: 2761 e1bd 0002 46bf ef42 cebe 98f2 9bbe
00000100: 4ee8 babe 53a3 0fbe 28dc a4be 59eb cd3d
00000110: b163 70bf 9130 1b3e c4c3 66bd 4df4 62be
00000120: e3d1 2dbf 3024 cbbe 6fb9 9fba d431 a9be
00000130: cd39 06bf 796f c2be d8dd 66be 1e5f bbbd
00000140: c099 813e 29c7 553e 743e 8cbe f98c 33be
00000150: 8a99 9c3d b652 16be 3982 f3be 823d 9cbc
00000160: 8c87 d33d 484f 363e 90cd a5bd e0e1 1ebf
00000170: 0162 2bbd dedf abbd 4f0f 3dbe 07b5 10bf
00000180: b70d 04bd 06ae 313d 1fd5 c1be af04 493e
00000190: 895b ecbe 133b b4bd 18af c6be e032 04bf
000001a0: cd3c 963e fc5d 8dbe 5549 31be 6a9d 08bf
000001b0: 95cf c2bd 6c85 8dbe 814f 9bbe 83f2 bbbe
000001c0: a4f4 1d3d d305 43bc 4ada 0cbe 75f7 25be
000001d0: e9b0 8abc 782c 6bbd 7986 a9be d272 d7be
000001e0: 4d65 d0bd 4e52 b7be fb74 ecbe bb06 8ebc
000001f0: 61ce 70be 3201 833e 6d49 4d3e 1219 0ebe
00000200: 0fdc 2dbc 7a1f ee3e d81c c1be 8def 32be
00000210: 7c0d dfbe 9144 59be b566 073e bd0d 9e3c
00000220: f12a c7b9 a4c7 2ebe 090e 4bbe c0dd 0dbf
00000230: 5433 5bbd 764d 19be 115b 84be a62f dabd
00000240: 351c 1fbf 6906 cb3e be90 51be 6c74 1cbd
00000250: e32c 45be 99d5 9abe 3615 6bbe 1540 203c
00000260: 7e0c 0bbf b38a 88be 0a1b 11be 4c2f b4be
00000270: 61a7 00be 8069 28be e43f 143e 5e3b ccbd
00000280: c60d 32be 4880 d13e f738 66be 30fb e6bd
00000290: ca76 93be 2696 babe 7df9 fbbe 48ee ecbe
000002a0: 6084 333e 15d4 673e c63c 95be 7154 42bf
000002b0: bc2f 373e 88ec e63c c86f 4bbe 4785 2e3d
000002c0: 3602 e83d 7d56 333e cd85 83be faf0 18bf
000002d0: e9ac 9c3e a9df 9cbe adad b9bd 4fe4 f4bd
000002e0: 9596 cebd 83c3 8bbe 1be4 40be 1b57 373f
000002f0: 11ef 97be 34b4 97bd 4b98 3dbf fba5 80be
00000300: 079f bc3b 6a62 2dbc 36fb 093d 73ec b8be
00000310: 87d3 e23d 3555 d5bb 24db c6be 39ab e2be
00000320: 237f ebbe 4994 2d3e bb2d 43be 921d 15bc
00000330: 4006 0fbf e3c4 46bf 230b b9bd a24c 71be
00000340: 96fd 36be cf8d 2abb 05fe 33be f6d9 f2bd
00000350: 3888 4cbe ef8d ffbf 1ee9 6dbd ac4f 33bf
00000360: 5d49 9abc 5f59 c5be 2e6d cebe 54d9 533c
00000370: 62d3 b3bd 9d1d 5abd e931 51be 1bdd dfbe
00000380: 9b40 e43d 94a3 fdbe ef39 20bf 10ea 10bf
00000390: 2a7b f43c 2899 90be 8cee 42be f3f0 a4be
000003a0: c30c 24bf b4d9 963d c3b1 90bd e50e 9bbd
000003b0: 1913 3f3e 67bf 243e f4d4 a7be 2b37 29bf
000003c0: fd61 a4be 2e67 d2be 95ac a73e c5b3 44bf
000003d0: 42ad e8bd 7569 9bbd 12b3 1bbe fc7c 7cbe
000003e0: 6d7d f9bd 8bae fcbe b600 8cbe 7aff 37bd
000003f0: fe8c c0be 8bc9 5abe 93c9 efbe 3731 eebd

layer_2.bias f4 [300]
-0.4601888 -0.07981201 -0.3052762 -0.32586238 -0.48136193 0.03898375 -0.6463873 0.21831965
-0.39148504 -0.05818552 -0.032807503 -0.51209974 -0.022763416 -0.065845974 -0.83892995 -0.6088765
-0.556463 -0.7533147 -0.26068038 -0.05678502 -0.27128765 -0.7583318 0.26621738 0.68318546
-0.06515418 -0.06491186 -0.5117445 -0.21231702 -0.34537256 -0.19776523 0.16106723 -0.41981626
0.22440791 -0.36624712 -1.1512953 -0.5391262 -0.20486848 -0.56227404 -0.20603144 -0.61486244
-0.8144877 -0.33951837 -0.6964302 -0.066299625 -0.5535648 -0.266678 0.027097883 -0.9375743
0.18561952 -0.449999 -0.19911112 -0.52233535 0.22058558 -0.29706398 -0.24297345 -0.042913504
-0.08517766 -0.09672051 -0.54171246 -0.015729899 -0.4251091 -0.017266484 -0.22489715 -0.44042897
-0.41273534 -0.99555814 1.1900092 -0.064044885 -0.5969663 -0.027986526 -0.27265587 -0.96344864
-0.36203548 -0.088282794 0.8106143 -0.06716708 -0.50339955 -0.5394245 -0.64581466 0.09959146
0.25975904 -0.026934296 0.18981563 -0.56440884 0.13678972 0.03090219 -0.026630804 -0.64471
-0.58159727 -0.4879441 -0.2382855 0.040902752 -0.18378386 -0.3626101 -0.6942961 0.041633487
0.0009650557 -0.6562911 -0.02439807 -0.8211206 -0.17652193 -1.5850738 -0.6932061 0.32442212
0.58414143 0.952632 0.18242332 0.28841975 -0.0381514 -0.034078408 0.16025306 -0.35646012
-0.9843964 -0.04512213 0.16264556 -0.07518029 -0.049213473 -0.08871285 -0.11420995 -0.05982289
-0.06341364 -0.20976701 -0.39050922 -0.4913555 -0.18387009 -0.016974708 -0.09682751 -0.5198754
-0.17079973 -0.08085709 -0.059343662 0.107185625 -0.414777 -0.7580536 0.07741904 0.011977756
-0.06149489 -0.028181644 -0.12558092 -0.037106697 -0.57730526 -0.6307376 -0.6145114 -0.80062884
-0.2735028 0.004749591 -0.81166005 -0.5340606 -0.88825315 -0.4780793 -0.6760623 -0.02468508
-0.56759995 0.40083304 0.12213861 -0.29258844 -0.027156247 -0.3597134 0.045253843 -0.5329072
-0.68798804 0.15026274 0.030867763 -0.09795571 -1.0617641 -0.21359056 -0.094002984 -0.098237604
-0.3727793 -0.02319538 -0.25210592 -0.33147487 -0.12460442 -0.99032277 -0.29728684 0.16951829
-0.05173286 -0.5543327 0.46216667 -0.74364096 0.06566241 -0.2756241 -0.04805949 -0.4248724
-0.21762243 -0.44088632 -0.7965276 -0.099890724 -0.20434505 0.008213468 -0.40534496 -0.58095646
-0.1033199 -0.08690909 0.6905267 0.17635843 0.038573675 -0.55561566 -0.11553682 -0.061356407
-0.6461129 -0.33562562 0.08694487 -0.1052624 -0.8962984 0.22340934 -0.2985461 -0.019975018
-0.08474721 0.09038392 -0.80131656 -0.09697374 -0.45891032 -0.28854755 -0.064564325 -0.10616791
0.18650058 -0.7197748 -0.4400535 0.05298159 -0.7549861 -0.68789285 -0.3806342 0.19333658
0.05625709 -0.14333105 -0.06887155 -0.06551535 -0.7186407 -0.025327327 -0.4757476 -0.428678
-0.10932101 -0.1051014 -0.6987148 -0.69715816 -0.13654648 -0.06558174 -0.7428528 -0.81272995
-0.3369437 -0.07327245 -1.0567361 0.6552632 -0.100241564 -0.07902606 -0.27121496 0.6761202
-0.5374788 -0.07036578 -0.07233423 -0.040991254 -0.0004953616 -0.098092355 -0.9879115 -0.53702205
00000000: de9d ebbe 7b74 a3bd 294d 9cbe 6fd7 a6be
00000010: 1275 f6be 6dad 1f3d a379 25bf 308f 5f3e
00000020: ba70 c8be f153 6ebd 2961 06bd f818 03bf
00000030: 587a babc 41da 86bd 1dc4 56bf 55df 1bbf
00000040: 5c74 0ebf 3bd9 40bf e677 85be 6997 68bd
00000050: 37e6 8abe 0822 42bf a54d 883e 3ee5 2e3f
00000060: 8e6f 85bd 82f0 84bd b001 03bf a269 59be
00000070: acd4 b0be f882 4abe cfee 243e 28f2 d6be
00000080: 30cb 653e be84 bbbe a55d 93bf 2d04 0abf
00000090: 0bc9 51be 31f1 0fbf e8f9 52be a067 1dbf
000000a0: 4482 50bf 5ad5 adbe 4049 32bf 19c8 87bd
000000b0: 6cb6 0dbf 058a 88be 61fc dd3c df04 70bf
000000c0: 0b13 3e3e 4566 e6be c9e3 4bbe c5b7 05bf
000000d0: 30e1 613e c518 98be 08ce 78be 12c6 2fbd
000000e0: a071 aebd 6715 c6bd abad 0abf fddb 80bc
000000f0: e6a7 d9be 7172 8dbc 704b 66be e87f e1be
00000100: 0c52 d3be e6dc 7ebf 3952 983f f729 83bd
00000110: c9d2 18bf 0044 e5bc 8d99 8bbe 92a4 76bf
00000120: b75c b9be 9ccd b4bd 6b84 4f3f e58e 89bd
00000130: cbde 00bf b917 0abf 1c54 25bf 9bf6 cb3d
00000140: 23ff 843e 50a5 dcbc 075f 423e 197d 10bf
00000150: 9b12 0c3e 9726 fd3c d828 dabc b70b 25bf
00000160: 8fe3 14bf cfd3 f9be 1d01 74be a589 273d
00000170: d631 3cbe 08a8 b9be 64bd 31bf e087 2a3d
00000180: cbfb 7c3a b202 28bf 76de c7bc f634 52bf
00000190: 2ac2 34be b3e3 cabf f475 31bf a81a a63e
000001a0: 4b8a 153f b1df 733f 2ecd 3a3e c1ab 933e
000001b0: a444 1cbd cd95 0bbd 6119 243e f181 b6be
000001c0: 6701 7cbf fcd1 38bd 8f8c 263e 20f8 99bd
000001d0: 1194 49bd 15af b5bd e8e6 e9bd d908 75bd
000001e0: 03df 81bd 2acd 56be d3f0 c7be f392 fbbe
000001f0: 7148 3cbe 8b0e 8bbc 804d c6bd 8e16 05bf
00000200: 20e6 2ebe 6798 a5bd 5712 73bd 2384 db3d
00000210: a75d d4be cd0f 42bf e08d 9e3d 5a3e 443c
00000220: 11e2 7bbd 31dd e6bc 4998 00be 31fd 17bd
00000230: 47ca 13bf 0578 21bf 9e50 1dbf 03f6 4cbf
00000240: 8f08 8cbe 75a2 9b3b f4c8 4fbf 32b8 08bf
00000250: 8f64 63bf cfc6 f4be 6b12 2dbf 5d38 cabc
00000260: 3b4e 11bf fd39 cd3e cf23 fa3d 27ce 95be
00000270: c776 debc 5b2c b8be 185c 393d 9b6c 08bf
00000280: fc1f 30bf 7ade 193e 64de fc3c 019d c8bd
00000290: e3e7 87bf 7cb7 5abe a384 c0bd cc30 c9bd
000002a0: eedc bebe 3d04 bebc 0714 81be 13b7 a9be
000002b0: 9a30 ffbd cb85 7dbf fb35 98be 3496 2d3e
000002c0: d6e5 53bd bfe8 0dbf 1ca1 ec3e 415f 3ebf
000002d0: 037a 863d 9a1e 8dbe 07da 44bd e088 d9be
000002e0: 6ad8 5ebe dabb e1be 3ce9 4bbf 8293 ccbd
000002f0: d43f 51be c891 063c 6089 cfbe 90b9 14bf
00000300: 6299 d3bd 65fd b1bd 5cc6 303f 4e97 343e
00000310: 6eff 1d3d d43c 0ebf 919e ecbd db50 7bbd
00000320: a867 25bf 1fd7 abbe 2710 b23d d093 d7bd
00000330: d073 65bf 6bc5 643e 09db 98be a6a2 a3bc
00000340: f28f adbd 341b b93d 1523 4dbf 2b9a c6bd
00000350: 4bf6 eabe 81bc 93be 4d3a 84bd 906e d9bd
00000360: 02fa 3e3e 2943 38bf b14e e1be 3903 593d
00000370: c546 41bf bf19 30bf 7ce2 c2be 06fa 453e
00000380: d66d 663d 60c5 12be 870c 8dbd e92c 86bd
00000390: d6f8 37bf 417b cfbc 3095 f3be af7b dbbe
000003a0: b2e3 dfbd 673f d7bd f9de 32bf f578 32bf
000003b0: d7d2 0bbe b84f 86bd 9a2b 3ebf 120f 50bf
000003c0: e283 acbe de0f 96bd 2143 87bf 54bf 273f
000003d0: 734b cdbd 6ad8 a1bd b0dc 8abe 3716 2d3f
000003e0: 3698 09bf ef1b 90bd f823 94bd 72e6 27bd
000003f0: 27db 01ba a5e4 c8bd c5e7 7cbf 477a 09bf

layer_3.weight f4 [8, 300]
-2.5454605 0.0468604 0.05033789 0.09821875 -0.42779195 0.058603033 0.30254465 0.19860229
-0.0929321 0.006657945 -0.05685633 -1.1114129 -0.019178765 -0.014883159 -0.22132787 -0.02634615
0.12249969 0.17846988 -0.032556143 0.28505886 0.027886452 0.04603212 -0.033999983 0.032725494
-0.1458627 -0.0796141 -0.17009248 0.0028150047 0.17764826 -0.5505828 0.019423053 0.14105347
-0.0008060523 0.4066327 0.26255733 -0.6911876 0.034241166 0.16441685 -0.068772964 0.18557276
0.36777395 -0.058276653 0.15897393 0.054154932 -0.6577181 0.013348783 0.4165804 0.27233234
-0.4434475 0.12651485 -0.015546304 0.25729024 -0.09608632 -0.34812152 -0.1342247 -0.02079655
0.028808638 0.24970677 0.043645978 0.026610939 -0.17578466 0.00047179675 0.5600173 0.28682515
-0.27644697 0.016757838 0.12657751 -0.07499003 -0.31145716 0.04917172 -0.07778699 0.075405225
-0.21551345 0.008152127 -0.011463068 -0.035125345 -0.2511651 -0.14964198 -1.5826719 -0.065479994
0.0133280605 0.00971619 0.73354566 -0.017349793 0.0043231715 -0.039379187 1.3736517 0.18953885
0.13404277 -0.2416475 -0.17848295 0.03237903 1.6250012 0.015401679 -0.02772158 0.0891038
0.012704394 0.0026814982 0.07924231 0.1004457 -0.08948324 -0.15262862 0.020852754 0.04979609
0.0078509515 0.25499052 0.13252413 0.17783487 0.011047778 -0.016898723 -0.14397566 0.7134575
-0.3429578 0.0036164832 0.14170912 0.06365324 0.06890226 0.04339216 -0.013259879 0.073163204
-0.023053518 0.06440635 0.16617364 -0.16133001 -0.028664015 0.20622875 -0.10907423 0.14497206
-0.10750575 -0.013491588 0.030640977 0.2774388 -0.083301045 0.1087977 0.38441792 0.14016417
0.08555204 -0.0031186221 0.00542072 -0.005224931 0.16704325 0.18385893 -0.18060748 0.41286516
-0.42042845 0.08176431 0.16361944 0.11368981 -0.068664454 -0.096297786 -0.44653422 -0.07513784
0.07739901 -0.0007216353 0.38423836 -2.072328 -0.027763693 -1.1752375 -0.02818943 -0.9275874
-0.7028878 1.2901181 -0.0034073687 0.0064036665 0.20027398 -0.12851253 1.5568639 -0.023597797
0.23515567 0.071956016 0.19207941 -0.030243935 0.0007037016 0.15189676 0.07827404 -0.98872554
-0.0005950092 -0.09242814 0.055509515 -0.18855889 -0.009381011 0.12121014 -0.11508857 0.38622215
0.0154151125 -0.09654006 -0.028063947 -0.50010616 -0.0037756844 -0.0055335145 -0.105782956 0.0023125536
-0.07370697 -0.025675472 0.014358901 -0.09501733 -0.10015118 -0.17283548 -0.06273684 0.001987455
-0.9820029 -0.10428773 -0.010003637 0.019647863 -0.11170935 -0.039425038 -0.67015815 0.043224044
-0.0054477393 0.0593416 0.020625135 -0.010986497 0.20534393 0.07210987 0.020817349 0.03487164
0.056126986 -0.2289918 0.05407781 0.078286864 -1.1346394 0.5694796 -1.6999183 -0.19446632
-0.032500498 0.1093864 0.04508355 -0.021411777 0.1275107 0.0074268235 0.18493855 -0.18608797
0.014225898 0.11032029 -0.13563094 -0.0026272722 0.010337363 0.062508434 0.11251317 -0.20846613
0.008894285 0.022063771 0.19642267 0.10127314 -0.029537207 -0.02833517 0.05435993 -0.003020814
-0.246766 0.07910083 0.019400323 0.032198414 -0.0050081224 -0.009136357 0.13573253 0.0006166187
00000000: d3e8 22c0 b1f0 3f3d 1a2f 4e3d e926 c93d
00000010: 8c07 dbbe bc09 703d 22e7 9a3e 665e 4b3e
00000020: 2f53 bebd e42a da3b 2fe2 68bd c742 8ebf
00000030: c91c 9dbc 7ed8 73bc c6a3 62be e2d3 d7bc
00000040: 1ee1 fa3d cfc0 363e 9759 05bd 3cf3 913e
00000050: 2172 e43c 2d8c 3c3d 9143 0bbd 2b0b 063d
00000060: 085d 15be b80c a3bd b92c 2ebe f17b 383b
00000070: 6de9 353e fff2 0cbf 181d 9f3c 5270 103e
00000080: 414d 53ba 2932 d03e ea6d 863e acf1 30bf
00000090: 7740 0c3d e45c 283e d7d8 8cbd c906 3e3e
000000a0: de4c bc3e 80b3 6ebd 10ca 223e 90d1 5d3d
000000b0: 3760 28bf dbb4 5a3c 074a d53e 256f 8b3e
000000c0: 8d0b e3be 1c8d 013e edb5 7ebc 8cbb 833e
000000d0: e8c8 c4bd fc3c b2be 3372 09be 875d aabc
000000e0: 1800 ec3c 22b3 7f3e 20c6 323d 2fff d93c
000000f0: e500 34be 7d5b f739 4b5d 0f3f bfda 923e
00000100: 758a 8dbe bc47 893c 899d 013e 5f94 99bd
00000110: 5077 9fbe 4968 493d c94e 9fbd 0e6e 9a3d
00000120: 8faf 5cbe 8090 053c 98cf 3bbc 98df 0fbd
00000130: b698 80be bf3b 19be fe94 cabf 601a 86bd
00000140: f05d 5a3c a830 1f3c a6c9 3b3f 2721 8ebc
00000150: 64a9 8d3b 124c 21bd d2d3 af3f 7916 423e
00000160: 8242 093e 7172 77be 3cc4 36be e09f 043d
00000170: 0a00 d03f 5357 7c3c 5e18 e3bc 0e7c b63d
00000180: 1726 503c 13bc 2f3b cb49 a23d 7ab6 cd3d
00000190: fd42 b7bd ad4a 1cbe 65d3 aa3c fcf6 4b3d
000001a0: 47a1 003c 1e8e 823e 68b4 073e 581a 363e
000001b0: bd01 353c 316f 8abc 5b6e 13be 27a5 363f
000001c0: 2a98 afbe 8502 6d3b 321c 113e a15c 823d
000001d0: a11c 8d3d fabb 313d f73f 59bc 97d6 953d
000001e0: bbda bcbc 7ae7 833d 6c29 2a3e b233 25be
000001f0: ccd0 eabc a12d 533e 4f62 dfbd 8e73 143e
00000200: fa2b dcbd d20b 5dbc c902 fb3c 750c 8e3e
00000210: bd99 aabd 54d1 de3d 6dd2 c43e 3287 0f3e
00000220: e835 af3d cc61 4cbb 4ca0 b13b e635 abbb
00000230: 630d 2b3e 8445 3c3e 2bf1 38be 1063 d33e
00000240: 6642 d7be 0c74 a73d db8b 273e 34d6 e83d
00000250: f39f 8cbd c637 c5bd 22a0 e4be dee1 99bd
00000260: 5f83 9e3d 202c 3dba e4ba c43e 06a1 04c0
00000270: af70 e3bc 2f6e 96bf 85ed e6bc 5e76 6dbf
00000280: 74f0 33bf 9722 a53f 294e 5fbb d9d5 d13b
00000290: 9f14 4d3e ca98 03be 5147 c73f 2b50 c1bc
000002a0: a6cc 703e ad5d 933d 77b0 443e 21c2 f7bc
000002b0: 9d78 383a d38a 1b3e 244e a03d 1e1d 7dbf
000002c0: 64fa 1bba f74a bdbd f25d 633d 9515 41be
000002d0: d0b2 19bc 063d f83d 8eb3 ebbd e9be c53e
000002e0: ab8f 7c3c ccb6 c5bd 5de6 e5bc f506 00bf
000002f0: 7971 77bb 7c52 b5bb bca4 d8bd 368e 173b
00000300: aef3 96bd 5e55 d2bc 9941 6b3c 7298 c2bd
00000310: 101c cdbd c9fb 30be 2c7c 80bd f63f 023b
00000320: 8b64 7bbf ce94 d5bd 4be6 23bc 8ef4 a03c
00000330: dfc7 e4bd 267c 21bd 7c8f 2bbf b20b 313d
00000340: f382 b2bb 2d10 733d 0bf6 a83c b500 34bc
00000350: ae45 523e 57ae 933d 2589 aa3c 91d5 0e3d
00000360: 69e5 653d d47c 6abe b280 5d3d dd54 a03d
00000370: dd3b 91bf 6ac9 113f ec96 d9bf 2e22 47be
00000380: 3e1f 05bd fa05 e03d 87a9 383d c067 afbc
00000390: 2a92 023e b65c f33b 8860 3d3e d88d 3ebe
000003a0: be13 693c 9bef e13d d6e2 0abe 502e 2cbb
000003b0: 0b5e 293c 6c04 803d 4e6d e63d 2578 55be
000003c0: 56b9 113c 15bf b43c 0623 493e 4b68 cf3d
000003d0: 03f8 f1bc 291f e8bc 85a8 5e3d d9f8 45bb
000003e0: 3ab0 7cbe 9eff a13d 6ded 9e3c 7ce2 033d
000003f0: 2d1b a4bb a9b0 15bc 78fd 0a3e 95a4 213a

layer_3.bias f4 [8]
0.043358784 0.037886754 -0.12385796 -0.037249144 -0.09514537 -0.007427425 0.21104972 0.22302577
00000000: fb98 313d 242f 1b3d 3ea9 fdbd 8f92 18bd
00000010: 93db c2bd c261 f3bb 6b1d 583e de60 643e
